…
2025-10-03 19:46:19,251 INFO: Dataset SEN12MSCRDataset - TrainSet is created.
2025-10-03 19:46:19,251 INFO: Training statistics:
	Number of train images: 101615
	Dataset enlarge ratio: 1
	Batch size per gpu: 1
	World size (gpu number): 4
	Require iter number per epoch: 25404
	Total epochs: 8; iters: 190530.
2025-10-03 19:46:19,289 INFO: Dataset SEN12MSCRDataset - ValSet is created.
2025-10-03 19:46:19,289 INFO: Number of val images/folders in ValSet: 8623
2025-10-03 19:46:20,494 INFO: Network: DistributedDataParallel - ATT_CR, with parameters: 6,943,884
2025-10-03 19:46:20,494 INFO: ATT_CR(
  (patch_embed): OverlapPatchEmbed(
    (proj): Conv2d(15, 48, kernel_size=(3, 3), stride=(1, 1), padding=(1, 1), bias=False)
  )
  (encoder_level1): Sequential(
    (0): TransformerBlock(
      (norm1): LayerNorm(
        (body): WithBias_LayerNorm()
      )
      (norm2): LayerNorm(
        (body): WithBias_LayerNorm()
      )
      (ffn): FeedForward(
        (project_in): Conv2d(48, 254, kernel_size=(1, 1), stride=(1, 1), bias=False)
        (dwconv): Conv2d(254, 254, kernel_size=(3, 3), stride=(1, 1), padding=(1, 1), groups=254, bias=False)
        (project_out): Conv2d(127, 48, kernel_size=(1, 1), stride=(1, 1), bias=False)
      )
      (gloabl_attn): MS_Linear_Attention(
        (query): Conv2d(48, 48, kernel_size=(1, 1), stride=(1, 1))
        (aggreg): ModuleList(
          (0): Sequential(
            (0): Conv2d(48, 96, kernel_size=(1, 1), stride=(1, 1), bias=False)
            (1): Conv2d(96, 96, kernel_size=(3, 3), stride=(1, 1), padding=(1, 1), groups=96, bias=False)
          )
          (1): Sequential(
            (0): Conv2d(48, 96, kernel_size=(1, 1), stride=(1, 1), bias=False)
            (1): Conv2d(96, 96, kernel_size=(5, 5), stride=(1, 1), padding=(2, 2), groups=96, bias=False)
          )
        )
        (proj): Linear(in_features=96, out_features=48, bias=True)
        (output_linear): Conv2d(48, 48, kernel_size=(1, 1), stride=(1, 1))
        (causal_att_down_tri): CausalLinearAttention(
          (feature_map): ActivationFunctionFeatureMap()
        )
        (gate): Sequential(
          (0): Conv2d(48, 12, kernel_size=(1, 1), stride=(1, 1))
          (1): LeakyReLU(negative_slope=0.2, inplace=True)
          (2): Conv2d(12, 12, kernel_size=(3, 3), stride=(1, 1), padding=(1, 1))
          (3): LeakyReLU(negative_slope=0.2, inplace=True)
          (4): Conv2d(12, 48, kernel_size=(1, 1), stride=(1, 1))
        )
      )
    )
  )
  (down1_2): Downsample(
    (body): Sequential(
      (0): Conv2d(48, 24, kernel_size=(3, 3), stride=(1, 1), padding=(1, 1), bias=False)
      (1): PixelUnshuffle(downscale_factor=2)
    )
  )
  (encoder_level2): Sequential(
    (0): TransformerBlock(
      (norm1): LayerNorm(
        (body): WithBias_LayerNorm()
      )
      (norm2): LayerNorm(
        (body): WithBias_LayerNorm()
      )
      (ffn): FeedForward(
        (project_in): Conv2d(96, 510, kernel_size=(1, 1), stride=(1, 1), bias=False)
        (dwconv): Conv2d(510, 510, kernel_size=(3, 3), stride=(1, 1), padding=(1, 1), groups=510, bias=False)
        (project_out): Conv2d(255, 96, kernel_size=(1, 1), stride=(1, 1), bias=False)
      )
      (gloabl_attn): MS_Linear_Attention(
        (query): Conv2d(96, 96, kernel_size=(1, 1), stride=(1, 1))
        (aggreg): ModuleList(
          (0): Sequential(
            (0): Conv2d(96, 192, kernel_size=(1, 1), stride=(1, 1), bias=False)
            (1): Conv2d(192, 192, kernel_size=(3, 3), stride=(1, 1), padding=(1, 1), groups=192, bias=False)
          )
          (1): Sequential(
            (0): Conv2d(96, 192, kernel_size=(1, 1), stride=(1, 1), bias=False)
            (1): Conv2d(192, 192, kernel_size=(5, 5), stride=(1, 1), padding=(2, 2), groups=192, bias=False)
          )
        )
        (proj): Linear(in_features=192, out_features=96, bias=True)
        (output_linear): Conv2d(96, 96, kernel_size=(1, 1), stride=(1, 1))
        (causal_att_down_tri): CausalLinearAttention(
          (feature_map): ActivationFunctionFeatureMap()
        )
        (gate): Sequential(
          (0): Conv2d(96, 24, kernel_size=(1, 1), stride=(1, 1))
          (1): LeakyReLU(negative_slope=0.2, inplace=True)
          (2): Conv2d(24, 24, kernel_size=(3, 3), stride=(1, 1), padding=(1, 1))
          (3): LeakyReLU(negative_slope=0.2, inplace=True)
          (4): Conv2d(24, 96, kernel_size=(1, 1), stride=(1, 1))
        )
      )
    )
    (1): TransformerBlock(
      (norm1): LayerNorm(
        (body): WithBias_LayerNorm()
      )
      (norm2): LayerNorm(
        (body): WithBias_LayerNorm()
      )
      (ffn): FeedForward(
        (project_in): Conv2d(96, 510, kernel_size=(1, 1), stride=(1, 1), bias=False)
        (dwconv): Conv2d(510, 510, kernel_size=(3, 3), stride=(1, 1), padding=(1, 1), groups=510, bias=False)
        (project_out): Conv2d(255, 96, kernel_size=(1, 1), stride=(1, 1), bias=False)
      )
      (gloabl_attn): MS_Linear_Attention(
        (query): Conv2d(96, 96, kernel_size=(1, 1), stride=(1, 1))
        (aggreg): ModuleList(
          (0): Sequential(
            (0): Conv2d(96, 192, kernel_size=(1, 1), stride=(1, 1), bias=False)
            (1): Conv2d(192, 192, kernel_size=(3, 3), stride=(1, 1), padding=(1, 1), groups=192, bias=False)
          )
          (1): Sequential(
            (0): Conv2d(96, 192, kernel_size=(1, 1), stride=(1, 1), bias=False)
            (1): Conv2d(192, 192, kernel_size=(5, 5), stride=(1, 1), padding=(2, 2), groups=192, bias=False)
          )
        )
        (proj): Linear(in_features=192, out_features=96, bias=True)
        (output_linear): Conv2d(96, 96, kernel_size=(1, 1), stride=(1, 1))
        (causal_att_down_tri): CausalLinearAttention(
          (feature_map): ActivationFunctionFeatureMap()
        )
        (gate): Sequential(
          (0): Conv2d(96, 24, kernel_size=(1, 1), stride=(1, 1))
          (1): LeakyReLU(negative_slope=0.2, inplace=True)
          (2): Conv2d(24, 24, kernel_size=(3, 3), stride=(1, 1), padding=(1, 1))
          (3): LeakyReLU(negative_slope=0.2, inplace=True)
          (4): Conv2d(24, 96, kernel_size=(1, 1), stride=(1, 1))
        )
      )
    )
  )
  (down2_3): Downsample(
    (body): Sequential(
      (0): Conv2d(96, 48, kernel_size=(3, 3), stride=(1, 1), padding=(1, 1), bias=False)
      (1): PixelUnshuffle(downscale_factor=2)
    )
  )
  (encoder_level3): Sequential(
    (0): TransformerBlock(
      (norm1): LayerNorm(
        (body): WithBias_LayerNorm()
      )
      (norm2): LayerNorm(
        (body): WithBias_LayerNorm()
      )
      (ffn): FeedForward(
        (project_in): Conv2d(192, 1020, kernel_size=(1, 1), stride=(1, 1), bias=False)
        (dwconv): Conv2d(1020, 1020, kernel_size=(3, 3), stride=(1, 1), padding=(1, 1), groups=1020, bias=False)
        (project_out): Conv2d(510, 192, kernel_size=(1, 1), stride=(1, 1), bias=False)
      )
      (gloabl_attn): MS_Linear_Attention(
        (query): Conv2d(192, 192, kernel_size=(1, 1), stride=(1, 1))
        (aggreg): ModuleList(
          (0): Sequential(
            (0): Conv2d(192, 384, kernel_size=(1, 1), stride=(1, 1), bias=False)
            (1): Identity()
          )
          (1): Sequential(
            (0): Conv2d(192, 384, kernel_size=(1, 1), stride=(1, 1), bias=False)
            (1): Conv2d(384, 384, kernel_size=(3, 3), stride=(1, 1), padding=(1, 1), groups=384, bias=False)
          )
        )
        (proj): Linear(in_features=384, out_features=192, bias=True)
        (output_linear): Conv2d(192, 192, kernel_size=(1, 1), stride=(1, 1))
        (causal_att_down_tri): CausalLinearAttention(
          (feature_map): ActivationFunctionFeatureMap()
        )
        (gate): Sequential(
          (0): Conv2d(192, 48, kernel_size=(1, 1), stride=(1, 1))
          (1): LeakyReLU(negative_slope=0.2, inplace=True)
          (2): Conv2d(48, 48, kernel_size=(3, 3), stride=(1, 1), padding=(1, 1))
          (3): LeakyReLU(negative_slope=0.2, inplace=True)
          (4): Conv2d(48, 192, kernel_size=(1, 1), stride=(1, 1))
        )
      )
    )
    (1): TransformerBlock(
      (norm1): LayerNorm(
        (body): WithBias_LayerNorm()
      )
      (norm2): LayerNorm(
        (body): WithBias_LayerNorm()
      )
      (ffn): FeedForward(
        (project_in): Conv2d(192, 1020, kernel_size=(1, 1), stride=(1, 1), bias=False)
        (dwconv): Conv2d(1020, 1020, kernel_size=(3, 3), stride=(1, 1), padding=(1, 1), groups=1020, bias=False)
        (project_out): Conv2d(510, 192, kernel_size=(1, 1), stride=(1, 1), bias=False)
      )
      (gloabl_attn): MS_Linear_Attention(
        (query): Conv2d(192, 192, kernel_size=(1, 1), stride=(1, 1))
        (aggreg): ModuleList(
          (0): Sequential(
            (0): Conv2d(192, 384, kernel_size=(1, 1), stride=(1, 1), bias=False)
            (1): Identity()
          )
          (1): Sequential(
            (0): Conv2d(192, 384, kernel_size=(1, 1), stride=(1, 1), bias=False)
            (1): Conv2d(384, 384, kernel_size=(3, 3), stride=(1, 1), padding=(1, 1), groups=384, bias=False)
          )
        )
        (proj): Linear(in_features=384, out_features=192, bias=True)
        (output_linear): Conv2d(192, 192, kernel_size=(1, 1), stride=(1, 1))
        (causal_att_down_tri): CausalLinearAttention(
          (feature_map): ActivationFunctionFeatureMap()
        )
        (gate): Sequential(
          (0): Conv2d(192, 48, kernel_size=(1, 1), stride=(1, 1))
          (1): LeakyReLU(negative_slope=0.2, inplace=True)
          (2): Conv2d(48, 48, kernel_size=(3, 3), stride=(1, 1), padding=(1, 1))
          (3): LeakyReLU(negative_slope=0.2, inplace=True)
          (4): Conv2d(48, 192, kernel_size=(1, 1), stride=(1, 1))
        )
      )
    )
    (2): TransformerBlock(
      (norm1): LayerNorm(
        (body): WithBias_LayerNorm()
      )
      (norm2): LayerNorm(
        (body): WithBias_LayerNorm()
      )
      (ffn): FeedForward(
        (project_in): Conv2d(192, 1020, kernel_size=(1, 1), stride=(1, 1), bias=False)
        (dwconv): Conv2d(1020, 1020, kernel_size=(3, 3), stride=(1, 1), padding=(1, 1), groups=1020, bias=False)
        (project_out): Conv2d(510, 192, kernel_size=(1, 1), stride=(1, 1), bias=False)
      )
      (gloabl_attn): MS_Linear_Attention(
        (query): Conv2d(192, 192, kernel_size=(1, 1), stride=(1, 1))
        (aggreg): ModuleList(
          (0): Sequential(
            (0): Conv2d(192, 384, kernel_size=(1, 1), stride=(1, 1), bias=False)
            (1): Identity()
          )
          (1): Sequential(
            (0): Conv2d(192, 384, kernel_size=(1, 1), stride=(1, 1), bias=False)
            (1): Conv2d(384, 384, kernel_size=(3, 3), stride=(1, 1), padding=(1, 1), groups=384, bias=False)
          )
        )
        (proj): Linear(in_features=384, out_features=192, bias=True)
        (output_linear): Conv2d(192, 192, kernel_size=(1, 1), stride=(1, 1))
        (causal_att_down_tri): CausalLinearAttention(
          (feature_map): ActivationFunctionFeatureMap()
        )
        (gate): Sequential(
          (0): Conv2d(192, 48, kernel_size=(1, 1), stride=(1, 1))
          (1): LeakyReLU(negative_slope=0.2, inplace=True)
          (2): Conv2d(48, 48, kernel_size=(3, 3), stride=(1, 1), padding=(1, 1))
          (3): LeakyReLU(negative_slope=0.2, inplace=True)
          (4): Conv2d(48, 192, kernel_size=(1, 1), stride=(1, 1))
        )
      )
    )
    (3): TransformerBlock(
      (norm1): LayerNorm(
        (body): WithBias_LayerNorm()
      )
      (norm2): LayerNorm(
        (body): WithBias_LayerNorm()
      )
      (ffn): FeedForward(
        (project_in): Conv2d(192, 1020, kernel_size=(1, 1), stride=(1, 1), bias=False)
        (dwconv): Conv2d(1020, 1020, kernel_size=(3, 3), stride=(1, 1), padding=(1, 1), groups=1020, bias=False)
        (project_out): Conv2d(510, 192, kernel_size=(1, 1), stride=(1, 1), bias=False)
      )
      (gloabl_attn): MS_Linear_Attention(
        (query): Conv2d(192, 192, kernel_size=(1, 1), stride=(1, 1))
        (aggreg): ModuleList(
          (0): Sequential(
            (0): Conv2d(192, 384, kernel_size=(1, 1), stride=(1, 1), bias=False)
            (1): Identity()
          )
          (1): Sequential(
            (0): Conv2d(192, 384, kernel_size=(1, 1), stride=(1, 1), bias=False)
            (1): Conv2d(384, 384, kernel_size=(3, 3), stride=(1, 1), padding=(1, 1), groups=384, bias=False)
          )
        )
        (proj): Linear(in_features=384, out_features=192, bias=True)
        (output_linear): Conv2d(192, 192, kernel_size=(1, 1), stride=(1, 1))
        (causal_att_down_tri): CausalLinearAttention(
          (feature_map): ActivationFunctionFeatureMap()
        )
        (gate): Sequential(
          (0): Conv2d(192, 48, kernel_size=(1, 1), stride=(1, 1))
          (1): LeakyReLU(negative_slope=0.2, inplace=True)
          (2): Conv2d(48, 48, kernel_size=(3, 3), stride=(1, 1), padding=(1, 1))
          (3): LeakyReLU(negative_slope=0.2, inplace=True)
          (4): Conv2d(48, 192, kernel_size=(1, 1), stride=(1, 1))
        )
      )
    )
    (4): TransformerBlock(
      (norm1): LayerNorm(
        (body): WithBias_LayerNorm()
      )
      (norm2): LayerNorm(
        (body): WithBias_LayerNorm()
      )
      (ffn): FeedForward(
        (project_in): Conv2d(192, 1020, kernel_size=(1, 1), stride=(1, 1), bias=False)
        (dwconv): Conv2d(1020, 1020, kernel_size=(3, 3), stride=(1, 1), padding=(1, 1), groups=1020, bias=False)
        (project_out): Conv2d(510, 192, kernel_size=(1, 1), stride=(1, 1), bias=False)
      )
      (gloabl_attn): MS_Linear_Attention(
        (query): Conv2d(192, 192, kernel_size=(1, 1), stride=(1, 1))
        (aggreg): ModuleList(
          (0): Sequential(
            (0): Conv2d(192, 384, kernel_size=(1, 1), stride=(1, 1), bias=False)
            (1): Identity()
          )
          (1): Sequential(
            (0): Conv2d(192, 384, kernel_size=(1, 1), stride=(1, 1), bias=False)
            (1): Conv2d(384, 384, kernel_size=(3, 3), stride=(1, 1), padding=(1, 1), groups=384, bias=False)
          )
        )
        (proj): Linear(in_features=384, out_features=192, bias=True)
        (output_linear): Conv2d(192, 192, kernel_size=(1, 1), stride=(1, 1))
        (causal_att_down_tri): CausalLinearAttention(
          (feature_map): ActivationFunctionFeatureMap()
        )
        (gate): Sequential(
          (0): Conv2d(192, 48, kernel_size=(1, 1), stride=(1, 1))
          (1): LeakyReLU(negative_slope=0.2, inplace=True)
          (2): Conv2d(48, 48, kernel_size=(3, 3), stride=(1, 1), padding=(1, 1))
          (3): LeakyReLU(negative_slope=0.2, inplace=True)
          (4): Conv2d(48, 192, kernel_size=(1, 1), stride=(1, 1))
        )
      )
    )
    (5): TransformerBlock(
      (norm1): LayerNorm(
        (body): WithBias_LayerNorm()
      )
      (norm2): LayerNorm(
        (body): WithBias_LayerNorm()
      )
      (ffn): FeedForward(
        (project_in): Conv2d(192, 1020, kernel_size=(1, 1), stride=(1, 1), bias=False)
        (dwconv): Conv2d(1020, 1020, kernel_size=(3, 3), stride=(1, 1), padding=(1, 1), groups=1020, bias=False)
        (project_out): Conv2d(510, 192, kernel_size=(1, 1), stride=(1, 1), bias=False)
      )
      (gloabl_attn): MS_Linear_Attention(
        (query): Conv2d(192, 192, kernel_size=(1, 1), stride=(1, 1))
        (aggreg): ModuleList(
          (0): Sequential(
            (0): Conv2d(192, 384, kernel_size=(1, 1), stride=(1, 1), bias=False)
            (1): Identity()
          )
          (1): Sequential(
            (0): Conv2d(192, 384, kernel_size=(1, 1), stride=(1, 1), bias=False)
            (1): Conv2d(384, 384, kernel_size=(3, 3), stride=(1, 1), padding=(1, 1), groups=384, bias=False)
          )
        )
        (proj): Linear(in_features=384, out_features=192, bias=True)
        (output_linear): Conv2d(192, 192, kernel_size=(1, 1), stride=(1, 1))
        (causal_att_down_tri): CausalLinearAttention(
          (feature_map): ActivationFunctionFeatureMap()
        )
        (gate): Sequential(
          (0): Conv2d(192, 48, kernel_size=(1, 1), stride=(1, 1))
          (1): LeakyReLU(negative_slope=0.2, inplace=True)
          (2): Conv2d(48, 48, kernel_size=(3, 3), stride=(1, 1), padding=(1, 1))
          (3): LeakyReLU(negative_slope=0.2, inplace=True)
          (4): Conv2d(48, 192, kernel_size=(1, 1), stride=(1, 1))
        )
      )
    )
    (6): TransformerBlock(
      (norm1): LayerNorm(
        (body): WithBias_LayerNorm()
      )
      (norm2): LayerNorm(
        (body): WithBias_LayerNorm()
      )
      (ffn): FeedForward(
        (project_in): Conv2d(192, 1020, kernel_size=(1, 1), stride=(1, 1), bias=False)
        (dwconv): Conv2d(1020, 1020, kernel_size=(3, 3), stride=(1, 1), padding=(1, 1), groups=1020, bias=False)
        (project_out): Conv2d(510, 192, kernel_size=(1, 1), stride=(1, 1), bias=False)
      )
      (gloabl_attn): MS_Linear_Attention(
        (query): Conv2d(192, 192, kernel_size=(1, 1), stride=(1, 1))
        (aggreg): ModuleList(
          (0): Sequential(
            (0): Conv2d(192, 384, kernel_size=(1, 1), stride=(1, 1), bias=False)
            (1): Identity()
          )
          (1): Sequential(
            (0): Conv2d(192, 384, kernel_size=(1, 1), stride=(1, 1), bias=False)
            (1): Conv2d(384, 384, kernel_size=(3, 3), stride=(1, 1), padding=(1, 1), groups=384, bias=False)
          )
        )
        (proj): Linear(in_features=384, out_features=192, bias=True)
        (output_linear): Conv2d(192, 192, kernel_size=(1, 1), stride=(1, 1))
        (causal_att_down_tri): CausalLinearAttention(
          (feature_map): ActivationFunctionFeatureMap()
        )
        (gate): Sequential(
          (0): Conv2d(192, 48, kernel_size=(1, 1), stride=(1, 1))
          (1): LeakyReLU(negative_slope=0.2, inplace=True)
          (2): Conv2d(48, 48, kernel_size=(3, 3), stride=(1, 1), padding=(1, 1))
          (3): LeakyReLU(negative_slope=0.2, inplace=True)
          (4): Conv2d(48, 192, kernel_size=(1, 1), stride=(1, 1))
        )
      )
    )
    (7): TransformerBlock(
      (norm1): LayerNorm(
        (body): WithBias_LayerNorm()
      )
      (norm2): LayerNorm(
        (body): WithBias_LayerNorm()
      )
      (ffn): FeedForward(
        (project_in): Conv2d(192, 1020, kernel_size=(1, 1), stride=(1, 1), bias=False)
        (dwconv): Conv2d(1020, 1020, kernel_size=(3, 3), stride=(1, 1), padding=(1, 1), groups=1020, bias=False)
        (project_out): Conv2d(510, 192, kernel_size=(1, 1), stride=(1, 1), bias=False)
      )
      (gloabl_attn): MS_Linear_Attention(
        (query): Conv2d(192, 192, kernel_size=(1, 1), stride=(1, 1))
        (aggreg): ModuleList(
          (0): Sequential(
            (0): Conv2d(192, 384, kernel_size=(1, 1), stride=(1, 1), bias=False)
            (1): Identity()
          )
          (1): Sequential(
            (0): Conv2d(192, 384, kernel_size=(1, 1), stride=(1, 1), bias=False)
            (1): Conv2d(384, 384, kernel_size=(3, 3), stride=(1, 1), padding=(1, 1), groups=384, bias=False)
          )
        )
        (proj): Linear(in_features=384, out_features=192, bias=True)
        (output_linear): Conv2d(192, 192, kernel_size=(1, 1), stride=(1, 1))
        (causal_att_down_tri): CausalLinearAttention(
          (feature_map): ActivationFunctionFeatureMap()
        )
        (gate): Sequential(
          (0): Conv2d(192, 48, kernel_size=(1, 1), stride=(1, 1))
          (1): LeakyReLU(negative_slope=0.2, inplace=True)
          (2): Conv2d(48, 48, kernel_size=(3, 3), stride=(1, 1), padding=(1, 1))
          (3): LeakyReLU(negative_slope=0.2, inplace=True)
          (4): Conv2d(48, 192, kernel_size=(1, 1), stride=(1, 1))
        )
      )
    )
  )
  (up3_2): Upsample(
    (body): Sequential(
      (0): Conv2d(192, 384, kernel_size=(3, 3), stride=(1, 1), padding=(1, 1), bias=False)
      (1): PixelShuffle(upscale_factor=2)
    )
  )
  (reduce_chan_level3): Conv2d(192, 96, kernel_size=(1, 1), stride=(1, 1), bias=False)
  (decoder_level3): Sequential(
    (0): TransformerBlock(
      (norm1): LayerNorm(
        (body): WithBias_LayerNorm()
      )
      (norm2): LayerNorm(
        (body): WithBias_LayerNorm()
      )
      (ffn): FeedForward(
        (project_in): Conv2d(96, 510, kernel_size=(1, 1), stride=(1, 1), bias=False)
        (dwconv): Conv2d(510, 510, kernel_size=(3, 3), stride=(1, 1), padding=(1, 1), groups=510, bias=False)
        (project_out): Conv2d(255, 96, kernel_size=(1, 1), stride=(1, 1), bias=False)
      )
      (gloabl_attn): MS_Linear_Attention(
        (query): Conv2d(96, 96, kernel_size=(1, 1), stride=(1, 1))
        (aggreg): ModuleList(
          (0): Sequential(
            (0): Conv2d(96, 192, kernel_size=(1, 1), stride=(1, 1), bias=False)
            (1): Conv2d(192, 192, kernel_size=(3, 3), stride=(1, 1), padding=(1, 1), groups=192, bias=False)
          )
          (1): Sequential(
            (0): Conv2d(96, 192, kernel_size=(1, 1), stride=(1, 1), bias=False)
            (1): Conv2d(192, 192, kernel_size=(5, 5), stride=(1, 1), padding=(2, 2), groups=192, bias=False)
          )
        )
        (proj): Linear(in_features=192, out_features=96, bias=True)
        (output_linear): Conv2d(96, 96, kernel_size=(1, 1), stride=(1, 1))
        (causal_att_down_tri): CausalLinearAttention(
          (feature_map): ActivationFunctionFeatureMap()
        )
        (gate): Sequential(
          (0): Conv2d(96, 24, kernel_size=(1, 1), stride=(1, 1))
          (1): LeakyReLU(negative_slope=0.2, inplace=True)
          (2): Conv2d(24, 24, kernel_size=(3, 3), stride=(1, 1), padding=(1, 1))
          (3): LeakyReLU(negative_slope=0.2, inplace=True)
          (4): Conv2d(24, 96, kernel_size=(1, 1), stride=(1, 1))
        )
      )
    )
    (1): TransformerBlock(
      (norm1): LayerNorm(
        (body): WithBias_LayerNorm()
      )
      (norm2): LayerNorm(
        (body): WithBias_LayerNorm()
      )
      (ffn): FeedForward(
        (project_in): Conv2d(96, 510, kernel_size=(1, 1), stride=(1, 1), bias=False)
        (dwconv): Conv2d(510, 510, kernel_size=(3, 3), stride=(1, 1), padding=(1, 1), groups=510, bias=False)
        (project_out): Conv2d(255, 96, kernel_size=(1, 1), stride=(1, 1), bias=False)
      )
      (gloabl_attn): MS_Linear_Attention(
        (query): Conv2d(96, 96, kernel_size=(1, 1), stride=(1, 1))
        (aggreg): ModuleList(
          (0): Sequential(
            (0): Conv2d(96, 192, kernel_size=(1, 1), stride=(1, 1), bias=False)
            (1): Conv2d(192, 192, kernel_size=(3, 3), stride=(1, 1), padding=(1, 1), groups=192, bias=False)
          )
          (1): Sequential(
            (0): Conv2d(96, 192, kernel_size=(1, 1), stride=(1, 1), bias=False)
            (1): Conv2d(192, 192, kernel_size=(5, 5), stride=(1, 1), padding=(2, 2), groups=192, bias=False)
          )
        )
        (proj): Linear(in_features=192, out_features=96, bias=True)
        (output_linear): Conv2d(96, 96, kernel_size=(1, 1), stride=(1, 1))
        (causal_att_down_tri): CausalLinearAttention(
          (feature_map): ActivationFunctionFeatureMap()
        )
        (gate): Sequential(
          (0): Conv2d(96, 24, kernel_size=(1, 1), stride=(1, 1))
          (1): LeakyReLU(negative_slope=0.2, inplace=True)
          (2): Conv2d(24, 24, kernel_size=(3, 3), stride=(1, 1), padding=(1, 1))
          (3): LeakyReLU(negative_slope=0.2, inplace=True)
          (4): Conv2d(24, 96, kernel_size=(1, 1), stride=(1, 1))
        )
      )
    )
  )
  (up2_1): Upsample(
    (body): Sequential(
      (0): Conv2d(96, 192, kernel_size=(3, 3), stride=(1, 1), padding=(1, 1), bias=False)
      (1): PixelShuffle(upscale_factor=2)
    )
  )
  (decoder_level1): Sequential(
    (0): TransformerBlock(
      (norm1): LayerNorm(
        (body): WithBias_LayerNorm()
      )
      (norm2): LayerNorm(
        (body): WithBias_LayerNorm()
      )
      (ffn): FeedForward(
        (project_in): Conv2d(96, 510, kernel_size=(1, 1), stride=(1, 1), bias=False)
        (dwconv): Conv2d(510, 510, kernel_size=(3, 3), stride=(1, 1), padding=(1, 1), groups=510, bias=False)
        (project_out): Conv2d(255, 96, kernel_size=(1, 1), stride=(1, 1), bias=False)
      )
      (gloabl_attn): MS_Linear_Attention(
        (query): Conv2d(96, 96, kernel_size=(1, 1), stride=(1, 1))
        (aggreg): ModuleList(
          (0): Sequential(
            (0): Conv2d(96, 192, kernel_size=(1, 1), stride=(1, 1), bias=False)
            (1): Conv2d(192, 192, kernel_size=(3, 3), stride=(1, 1), padding=(1, 1), groups=192, bias=False)
          )
          (1): Sequential(
            (0): Conv2d(96, 192, kernel_size=(1, 1), stride=(1, 1), bias=False)
            (1): Conv2d(192, 192, kernel_size=(5, 5), stride=(1, 1), padding=(2, 2), groups=192, bias=False)
          )
        )
        (proj): Linear(in_features=192, out_features=96, bias=True)
        (output_linear): Conv2d(96, 96, kernel_size=(1, 1), stride=(1, 1))
        (causal_att_down_tri): CausalLinearAttention(
          (feature_map): ActivationFunctionFeatureMap()
        )
        (gate): Sequential(
          (0): Conv2d(96, 24, kernel_size=(1, 1), stride=(1, 1))
          (1): LeakyReLU(negative_slope=0.2, inplace=True)
          (2): Conv2d(24, 24, kernel_size=(3, 3), stride=(1, 1), padding=(1, 1))
          (3): LeakyReLU(negative_slope=0.2, inplace=True)
          (4): Conv2d(24, 96, kernel_size=(1, 1), stride=(1, 1))
        )
      )
    )
  )
  (output): Conv2d(96, 13, kernel_size=(3, 3), stride=(1, 1), padding=(1, 1), bias=False)
)
2025-10-03 19:46:20,500 INFO: Model [ImageCleanModel] is created.
2025-10-03 19:46:59,143 INFO: Start training from epoch: 0, iter: 0
